…
38: 2018-10-07 23:53:03,068 INFO Epoch 0
42: 2018-10-07 23:53:03,065 INFO Epoch 0
24: 2018-10-07 23:53:03,067 INFO Epoch 0
54: 2018-10-07 23:53:03,068 INFO Epoch 0
30: 2018-10-07 23:53:03,067 INFO Epoch 0
46: 2018-10-07 23:53:03,068 INFO Epoch 0
58: 2018-10-07 23:53:03,068 INFO Epoch 0
62: 2018-10-07 23:53:03,068 INFO Epoch 0
44: 2018-10-07 23:53:03,068 INFO Epoch 0
14: 2018-10-07 23:53:03,067 INFO Epoch 0
60: 2018-10-07 23:53:03,065 INFO Epoch 0
13: 2018-10-07 23:53:03,064 INFO Epoch 0
 0: 2018-10-07 23:53:03,069 INFO Model: 
 0: DistributedDataParallelCPU(
 0:   (module): ResNet(
 0:     (conv1): Conv2d(3, 64, kernel_size=(3, 3), stride=(1, 1), padding=(1, 1), bias=False)
 0:     (bn1): BatchNorm2d(64, eps=1e-05, momentum=0.1, affine=True, track_running_stats=True)
 0:     (layer1): Sequential(
 0:       (0): Bottleneck(
 0:         (conv1): Conv2d(64, 64, kernel_size=(1, 1), stride=(1, 1), bias=False)
 0:         (bn1): BatchNorm2d(64, eps=1e-05, momentum=0.1, affine=True, track_running_stats=True)
 0:         (conv2): Conv2d(64, 64, kernel_size=(3, 3), stride=(1, 1), padding=(1, 1), bias=False)
 0:         (bn2): BatchNorm2d(64, eps=1e-05, momentum=0.1, affine=True, track_running_stats=True)
 0:         (conv3): Conv2d(64, 256, kernel_size=(1, 1), stride=(1, 1), bias=False)
 0:         (bn3): BatchNorm2d(256, eps=1e-05, momentum=0.1, affine=True, track_running_stats=True)
 0:         (shortcut): Sequential(
 0:           (0): Conv2d(64, 256, kernel_size=(1, 1), stride=(1, 1), bias=False)
 0:           (1): BatchNorm2d(256, eps=1e-05, momentum=0.1, affine=True, track_running_stats=True)
 0:         )
 0:       )
 0:       (1): Bottleneck(
 0:         (conv1): Conv2d(256, 64, kernel_size=(1, 1), stride=(1, 1), bias=False)
 0:         (bn1): BatchNorm2d(64, eps=1e-05, momentum=0.1, affine=True, track_running_stats=True)
 0:         (conv2): Conv2d(64, 64, kernel_size=(3, 3), stride=(1, 1), padding=(1, 1), bias=False)
 0:         (bn2): BatchNorm2d(64, eps=1e-05, momentum=0.1, affine=True, track_running_stats=True)
 0:         (conv3): Conv2d(64, 256, kernel_size=(1, 1), stride=(1, 1), bias=False)
 0:         (bn3): BatchNorm2d(256, eps=1e-05, momentum=0.1, affine=True, track_running_stats=True)
 0:         (shortcut): Sequential()
 0:       )
 0:       (2): Bottleneck(
 0:         (conv1): Conv2d(256, 64, kernel_size=(1, 1), stride=(1, 1), bias=False)
 0:         (bn1): BatchNorm2d(64, eps=1e-05, momentum=0.1, affine=True, track_running_stats=True)
 0:         (conv2): Conv2d(64, 64, kernel_size=(3, 3), stride=(1, 1), padding=(1, 1), bias=False)
 0:         (bn2): BatchNorm2d(64, eps=1e-05, momentum=0.1, affine=True, track_running_stats=True)
 0:         (conv3): Conv2d(64, 256, kernel_size=(1, 1), stride=(1, 1), bias=False)
 0:         (bn3): BatchNorm2d(256, eps=1e-05, momentum=0.1, affine=True, track_running_stats=True)
 0:         (shortcut): Sequential()
 0:       )
 0:     )
 0:     (layer2): Sequential(
 0:       (0): Bottleneck(
 0:         (conv1): Conv2d(256, 128, kernel_size=(1, 1), stride=(1, 1), bias=False)
 0:         (bn1): BatchNorm2d(128, eps=1e-05, momentum=0.1, affine=True, track_running_stats=True)
 0:         (conv2): Conv2d(128, 128, kernel_size=(3, 3), stride=(2, 2), padding=(1, 1), bias=False)
 0:         (bn2): BatchNorm2d(128, eps=1e-05, momentum=0.1, affine=True, track_running_stats=True)
 0:         (conv3): Conv2d(128, 512, kernel_size=(1, 1), stride=(1, 1), bias=False)
 0:         (bn3): BatchNorm2d(512, eps=1e-05, momentum=0.1, affine=True, track_running_stats=True)
 0:         (shortcut): Sequential(
 0:           (0): Conv2d(256, 512, kernel_size=(1, 1), stride=(2, 2), bias=False)
 0:           (1): BatchNorm2d(512, eps=1e-05, momentum=0.1, affine=True, track_running_stats=True)
 0:         )
 0:       )
 0:       (1): Bottleneck(
 0:         (conv1): Conv2d(512, 128, kernel_size=(1, 1), stride=(1, 1), bias=False)
 0:         (bn1): BatchNorm2d(128, eps=1e-05, momentum=0.1, affine=True, track_running_stats=True)
 0:         (conv2): Conv2d(128, 128, kernel_size=(3, 3), stride=(1, 1), padding=(1, 1), bias=False)
 0:         (bn2): BatchNorm2d(128, eps=1e-05, momentum=0.1, affine=True, track_running_stats=True)
 0:         (conv3): Conv2d(128, 512, kernel_size=(1, 1), stride=(1, 1), bias=False)
 0:         (bn3): BatchNorm2d(512, eps=1e-05, momentum=0.1, affine=True, track_running_stats=True)
 0:         (shortcut): Sequential()
 0:       )
 0:       (2): Bottleneck(
 0:         (conv1): Conv2d(512, 128, kernel_size=(1, 1), stride=(1, 1), bias=False)
 0:         (bn1): BatchNorm2d(128, eps=1e-05, momentum=0.1, affine=True, track_running_stats=True)
 0:         (conv2): Conv2d(128, 128, kernel_size=(3, 3), stride=(1, 1), padding=(1, 1), bias=False)
 0:         (bn2): BatchNorm2d(128, eps=1e-05, momentum=0.1, affine=True, track_running_stats=True)
 0:         (conv3): Conv2d(128, 512, kernel_size=(1, 1), stride=(1, 1), bias=False)
 0:         (bn3): BatchNorm2d(512, eps=1e-05, momentum=0.1, affine=True, track_running_stats=True)
 0:         (shortcut): Sequential()
 0:       )
 0:       (3): Bottleneck(
 0:         (conv1): Conv2d(512, 128, kernel_size=(1, 1), stride=(1, 1), bias=False)
 0:         (bn1): BatchNorm2d(128, eps=1e-05, momentum=0.1, affine=True, track_running_stats=True)
 0:         (conv2): Conv2d(128, 128, kernel_size=(3, 3), stride=(1, 1), padding=(1, 1), bias=False)
 0:         (bn2): BatchNorm2d(128, eps=1e-05, momentum=0.1, affine=True, track_running_stats=True)
 0:         (conv3): Conv2d(128, 512, kernel_size=(1, 1), stride=(1, 1), bias=False)
 0:         (bn3): BatchNorm2d(512, eps=1e-05, momentum=0.1, affine=True, track_running_stats=True)
 0:         (shortcut): Sequential()
 0:       )
 0:     )
 0:     (layer3): Sequential(
 0:       (0): Bottleneck(
 0:         (conv1): Conv2d(512, 256, kernel_size=(1, 1), stride=(1, 1), bias=False)
 0:         (bn1): BatchNorm2d(256, eps=1e-05, momentum=0.1, affine=True, track_running_stats=True)
 0:         (conv2): Conv2d(256, 256, kernel_size=(3, 3), stride=(2, 2), padding=(1, 1), bias=False)
 0:         (bn2): BatchNorm2d(256, eps=1e-05, momentum=0.1, affine=True, track_running_stats=True)
 0:         (conv3): Conv2d(256, 1024, kernel_size=(1, 1), stride=(1, 1), bias=False)
 0:         (bn3): BatchNorm2d(1024, eps=1e-05, momentum=0.1, affine=True, track_running_stats=True)
 0:         (shortcut): Sequential(
 0:           (0): Conv2d(512, 1024, kernel_size=(1, 1), stride=(2, 2), bias=False)
 0:           (1): BatchNorm2d(1024, eps=1e-05, momentum=0.1, affine=True, track_running_stats=True)
 0:         )
 0:       )
 0:       (1): Bottleneck(
 0:         (conv1): Conv2d(1024, 256, kernel_size=(1, 1), stride=(1, 1), bias=False)
 0:         (bn1): BatchNorm2d(256, eps=1e-05, momentum=0.1, affine=True, track_running_stats=True)
 0:         (conv2): Conv2d(256, 256, kernel_size=(3, 3), stride=(1, 1), padding=(1, 1), bias=False)
 0:         (bn2): BatchNorm2d(256, eps=1e-05, momentum=0.1, affine=True, track_running_stats=True)
 0:         (conv3): Conv2d(256, 1024, kernel_size=(1, 1), stride=(1, 1), bias=False)
 0:         (bn3): BatchNorm2d(1024, eps=1e-05, momentum=0.1, affine=True, track_running_stats=True)
 0:         (shortcut): Sequential()
 0:       )
 0:       (2): Bottleneck(
 0:         (conv1): Conv2d(1024, 256, kernel_size=(1, 1), stride=(1, 1), bias=False)
 0:         (bn1): BatchNorm2d(256, eps=1e-05, momentum=0.1, affine=True, track_running_stats=True)
 0:         (conv2): Conv2d(256, 256, kernel_size=(3, 3), stride=(1, 1), padding=(1, 1), bias=False)
 0:         (bn2): BatchNorm2d(256, eps=1e-05, momentum=0.1, affine=True, track_running_stats=True)
 0:         (conv3): Conv2d(256, 1024, kernel_size=(1, 1), stride=(1, 1), bias=False)
 0:         (bn3): BatchNorm2d(1024, eps=1e-05, momentum=0.1, affine=True, track_running_stats=True)
 0:         (shortcut): Sequential()
 0:       )
 0:       (3): Bottleneck(
 0:         (conv1): Conv2d(1024, 256, kernel_size=(1, 1), stride=(1, 1), bias=False)
 0:         (bn1): BatchNorm2d(256, eps=1e-05, momentum=0.1, affine=True, track_running_stats=True)
 0:         (conv2): Conv2d(256, 256, kernel_size=(3, 3), stride=(1, 1), padding=(1, 1), bias=False)
 0:         (bn2): BatchNorm2d(256, eps=1e-05, momentum=0.1, affine=True, track_running_stats=True)
 0:         (conv3): Conv2d(256, 1024, kernel_size=(1, 1), stride=(1, 1), bias=False)
 0:         (bn3): BatchNorm2d(1024, eps=1e-05, momentum=0.1, affine=True, track_running_stats=True)
 0:         (shortcut): Sequential()
 0:       )
 0:       (4): Bottleneck(
 0:         (conv1): Conv2d(1024, 256, kernel_size=(1, 1), stride=(1, 1), bias=False)
 0:         (bn1): BatchNorm2d(256, eps=1e-05, momentum=0.1, affine=True, track_running_stats=True)
 0:         (conv2): Conv2d(256, 256, kernel_size=(3, 3), stride=(1, 1), padding=(1, 1), bias=False)
 0:         (bn2): BatchNorm2d(256, eps=1e-05, momentum=0.1, affine=True, track_running_stats=True)
 0:         (conv3): Conv2d(256, 1024, kernel_size=(1, 1), stride=(1, 1), bias=False)
 0:         (bn3): BatchNorm2d(1024, eps=1e-05, momentum=0.1, affine=True, track_running_stats=True)
 0:         (shortcut): Sequential()
 0:       )
 0:       (5): Bottleneck(
 0:         (conv1): Conv2d(1024, 256, kernel_size=(1, 1), stride=(1, 1), bias=False)
 0:         (bn1): BatchNorm2d(256, eps=1e-05, momentum=0.1, affine=True, track_running_stats=True)
 0:         (conv2): Conv2d(256, 256, kernel_size=(3, 3), stride=(1, 1), padding=(1, 1), bias=False)
 0:         (bn2): BatchNorm2d(256, eps=1e-05, momentum=0.1, affine=True, track_running_stats=True)
 0:         (conv3): Conv2d(256, 1024, kernel_size=(1, 1), stride=(1, 1), bias=False)
 0:         (bn3): BatchNorm2d(1024, eps=1e-05, momentum=0.1, affine=True, track_running_stats=True)
 0:         (shortcut): Sequential()
 0:       )
 0:     )
 0:     (layer4): Sequential(
 0:       (0): Bottleneck(
 0:         (conv1): Conv2d(1024, 512, kernel_size=(1, 1), stride=(1, 1), bias=False)
 0:         (bn1): BatchNorm2d(512, eps=1e-05, momentum=0.1, affine=True, track_running_stats=True)
 0:         (conv2): Conv2d(512, 512, kernel_size=(3, 3), stride=(2, 2), padding=(1, 1), bias=False)
 0:         (bn2): BatchNorm2d(512, eps=1e-05, momentum=0.1, affine=True, track_running_stats=True)
 0:         (conv3): Conv2d(512, 2048, kernel_size=(1, 1), stride=(1, 1), bias=False)
 0:         (bn3): BatchNorm2d(2048, eps=1e-05, momentum=0.1, affine=True, track_running_stats=True)
 0:         (shortcut): Sequential(
 0:           (0): Conv2d(1024, 2048, kernel_size=(1, 1), stride=(2, 2), bias=False)
 0:           (1): BatchNorm2d(2048, eps=1e-05, momentum=0.1, affine=True, track_running_stats=True)
 0:         )
 0:       )
 0:       (1): Bottleneck(
 0:         (conv1): Conv2d(2048, 512, kernel_size=(1, 1), stride=(1, 1), bias=False)
 0:         (bn1): BatchNorm2d(512, eps=1e-05, momentum=0.1, affine=True, track_running_stats=True)
 0:         (conv2): Conv2d(512, 512, kernel_size=(3, 3), stride=(1, 1), padding=(1, 1), bias=False)
 0:         (bn2): BatchNorm2d(512, eps=1e-05, momentum=0.1, affine=True, track_running_stats=True)
 0:         (conv3): Conv2d(512, 2048, kernel_size=(1, 1), stride=(1, 1), bias=False)
 0:         (bn3): BatchNorm2d(2048, eps=1e-05, momentum=0.1, affine=True, track_running_stats=True)
 0:         (shortcut): Sequential()
 0:       )
 0:       (2): Bottleneck(
 0:         (conv1): Conv2d(2048, 512, kernel_size=(1, 1), stride=(1, 1), bias=False)
 0:         (bn1): BatchNorm2d(512, eps=1e-05, momentum=0.1, affine=True, track_running_stats=True)
 0:         (conv2): Conv2d(512, 512, kernel_size=(3, 3), stride=(1, 1), padding=(1, 1), bias=False)
 0:         (bn2): BatchNorm2d(512, eps=1e-05, momentum=0.1, affine=True, track_running_stats=True)
 0:         (conv3): Conv2d(512, 2048, kernel_size=(1, 1), stride=(1, 1), bias=False)
 0:         (bn3): BatchNorm2d(2048, eps=1e-05, momentum=0.1, affine=True, track_running_stats=True)
 0:         (shortcut): Sequential()
 0:       )
 0:     )
 0:     (linear): Linear(in_features=2048, out_features=10, bias=True)
 0:   )
 0: )
 0: Parameters: 23520842
 0: 2018-10-07 23:53:03,069 INFO Epoch 0
24: 2018-10-07 23:53:29,706 INFO   Training loss: 2.557
35: 2018-10-07 23:53:29,706 INFO   Training loss: 2.556
25: 2018-10-07 23:53:29,706 INFO   Training loss: 2.579
41: 2018-10-07 23:53:29,706 INFO   Training loss: 2.575
23: 2018-10-07 23:53:29,707 INFO   Training loss: 2.785
…
