…
 9: 2018-10-08 08:48:45,055 INFO Epoch 0
 6: 2018-10-08 08:48:45,054 INFO Epoch 0
 3: 2018-10-08 08:48:45,050 INFO Epoch 0
12: 2018-10-08 08:48:45,049 INFO Epoch 0
13: 2018-10-08 08:48:45,049 INFO Epoch 0
 2: 2018-10-08 08:48:45,055 INFO Epoch 0
10: 2018-10-08 08:48:45,057 INFO Epoch 0
11: 2018-10-08 08:48:45,054 INFO Epoch 0
14: 2018-10-08 08:48:45,050 INFO Epoch 0
15: 2018-10-08 08:48:45,048 INFO Epoch 0
 8: 2018-10-08 08:48:45,054 INFO Epoch 0
 0: 2018-10-08 08:48:45,051 INFO Generator module: 
 0: DistributedDataParallelCPU(
 0:   (module): Generator(
 0:     (network): Sequential(
 0:       (0): ConvTranspose2d(64, 128, kernel_size=(4, 4), stride=(1, 1), bias=False)
 0:       (1): BatchNorm2d(128, eps=1e-05, momentum=0.1, affine=True, track_running_stats=True)
 0:       (2): ReLU(inplace)
 0:       (3): ConvTranspose2d(128, 64, kernel_size=(4, 4), stride=(2, 2), padding=(1, 1), bias=False)
 0:       (4): BatchNorm2d(64, eps=1e-05, momentum=0.1, affine=True, track_running_stats=True)
 0:       (5): ReLU(inplace)
 0:       (6): ConvTranspose2d(64, 32, kernel_size=(4, 4), stride=(2, 2), padding=(1, 1), bias=False)
 0:       (7): BatchNorm2d(32, eps=1e-05, momentum=0.1, affine=True, track_running_stats=True)
 0:       (8): ReLU(inplace)
 0:       (9): ConvTranspose2d(32, 16, kernel_size=(4, 4), stride=(2, 2), padding=(1, 1), bias=False)
 0:       (10): BatchNorm2d(16, eps=1e-05, momentum=0.1, affine=True, track_running_stats=True)
 0:       (11): ReLU(inplace)
 0:       (12): ConvTranspose2d(16, 1, kernel_size=(4, 4), stride=(2, 2), padding=(1, 1), bias=False)
 0:       (13): Sigmoid()
 0:       (14): Threshold(threshold=0, value=0)
 0:     )
 0:   )
 0: )
 0: Parameters: 303840
 0: 2018-10-08 08:48:45,052 INFO Discriminator module: 
 0: DistributedDataParallelCPU(
 0:   (module): Discriminator(
 0:     (network): Sequential(
 0:       (0): Conv2d(1, 16, kernel_size=(4, 4), stride=(2, 2), padding=(1, 1), bias=False)
 0:       (1): LeakyReLU(negative_slope=0.2, inplace)
 0:       (2): Conv2d(16, 32, kernel_size=(4, 4), stride=(2, 2), padding=(1, 1), bias=False)
 0:       (3): BatchNorm2d(32, eps=1e-05, momentum=0.1, affine=True, track_running_stats=True)
 0:       (4): LeakyReLU(negative_slope=0.2, inplace)
 0:       (5): Conv2d(32, 64, kernel_size=(4, 4), stride=(2, 2), padding=(1, 1), bias=False)
 0:       (6): BatchNorm2d(64, eps=1e-05, momentum=0.1, affine=True, track_running_stats=True)
 0:       (7): LeakyReLU(negative_slope=0.2, inplace)
 0:       (8): Conv2d(64, 128, kernel_size=(4, 4), stride=(2, 2), padding=(1, 1), bias=False)
 0:       (9): BatchNorm2d(128, eps=1e-05, momentum=0.1, affine=True, track_running_stats=True)
 0:       (10): LeakyReLU(negative_slope=0.2, inplace)
 0:       (11): Conv2d(128, 1, kernel_size=(4, 4), stride=(1, 1), bias=False)
 0:       (12): Sigmoid()
 0:     )
 0:   )
 0: )
 0: Parameters: 174784
 0: 2018-10-08 08:48:45,052 INFO Epoch 0
 9: 2018-10-08 08:48:59,925 INFO   Avg discriminator real output: 0.7791
 3: 2018-10-08 08:48:59,920 INFO   Avg discriminator real output: 0.7769
 0: 2018-10-08 08:48:59,921 INFO   Avg discriminator real output: 0.7770
 9: 2018-10-08 08:48:59,926 INFO   Avg discriminator fake output: 0.0684
…
